…
args: Unpack[FlashAttentionKwargs],\n    ) -&gt; Union[Tuple, BaseModelOutputWithPast]:\n    ...\nSo, MistralModel overwrites LLamaModel’s deep layers with its own\nHere is MistralDecoderLayer:\nclass MistralDecoderLayer(LlamaDecoderLayer):\n    def __init__(self, config: MistralConfig, layer_idx: int):\n        super().__init__(config, layer_idx)\n        self.self_attn = MistralAttention(config=config, layer_idx=layer_idx)\n        self.mlp = MistralMLP(config)\n\nlen(model.model.layers)\n\n24\n\n\n\nmodel.model.layers[0]\n\nQwen2DecoderLayer(\n  (self_attn): Qwen2SdpaAttention(\n    (q_proj): Linear(in_features=896, out_features=896, bias=True)\n    (k_proj): Linear(in_features=896, out_features=128, bias=True)\n    (v_proj): Linear(in_features=896, out_features=128, bias=True)\n    (o_proj): Linear(in_features=896, out_features=896, bias=False)\n    (rotary_emb): Qwen2RotaryEmbedding()\n  )\n  (mlp): Qwen2MLP(\n    (gate_proj): Linear(in_features=896, out_features=4864, bias=False)\n    (up_proj): Linear(in_features=896, out_features=4864, bias=False)\n    (down_proj): Linear(in_features=4864, out_features=896, bias=False)\n    (act_fn): SiLU()\n  )\n  (input_layernorm): Qwen2RMSNorm((896,), eps=1e-06)\n  (post_attention_layernorm): Qwen2RMSNorm((896,), eps=1e-06)\n)\n\n\nBtw, here are the model sizes that work on Google Collab:\n\nQwen/Qwen2.5-0.5B-Instruct\nQwen/Qwen2.5-1.5B-Instruct\nQwen/Qwen2.5-3B-Instruct\nQwen/Qwen2.5-7B-Instruct (13.2 GB)\n\n\nl = model.model.layers[0]\n\n\nl.self_attn\n\nQwen2SdpaAttention(\n  (q_proj): Linear(in_features=896, out_features=896, bias=True)\n  (k_proj): Linear(in_features=896, out_features=128, bias=True)\n  (v_proj): Linear(in_features=896, out_features=128, bias=True)\n  (o_proj): Linear(in_features=896, out_features=896, bias=False)\n  (rotary_emb): Qwen2RotaryEmbedding()\n)\n\n\nHere is how we can extract query projection weight:\n\nl.self_attn.q_proj.weight\n\nParameter containing:\ntensor([[-0.0019, -0.0052,  0.0188,  ..., -0.0061, -0.0153,  0.0038],\n        [ 0.0084,  0.0018,  0.0435,  ...,  0.0066, -0.0422, -0.0181],\n        [-0.0168, -0.0248,  0.0422,  ...,  0.0089, -0.0008, -0.0094],\n        ...,\n        [-0.1040,  0.0791,  0.0132,  ..., -0.0161, -0.0221, -0.0588],\n        [-0.0140,  0.0654,  0.0591,  ...,  0.0410, -0.0046,  0.0025],\n        [ 0.0215,  0.0625,  0.0635,  ..., -0.0036, -0.0354, -0.0957]],\n       device='cuda:0', dtype=torch.bfloat16, requires_grad=True)\n\n\nQuestion: What is o_proj?\n\nl.mlp\n\nQwen2MLP(\n  (gate_proj): Linear(in_features=896, out_features=4864, bias=False)\n  (up_proj): Linear(in_features=896, out_features=4864, bias=False)\n  (down_proj): Linear(in_features=4864, out_features=896, bias=False)\n  (act_fn): SiLU()\n)",
    "crumbs": [
      "transformers",
      "Transformers"
    ]
  },
  {
    "objectID": "core.html",
    "href": "core.html",
    "title": "core",
    "section": "",
    "text": "source\n\nfoo\n\n foo ()",
    "crumbs": [
      "core"
    ]
  },
  {
    "objectID": "token_embeddings.html",
    "href": "token_embeddings.html",
…
 own.\nSo now, we find ourselves aboard the Sky, in the skies of the Orks. Our quest is to break the bonds of time and space,\nand reach the Celestial’s home, where they’ve waited so long.\nFor in the end, it’s not about conquest or glory, but about understanding and friendship. Together, we’ll travel through the cosmos, free from our own chains,\n\n\n\nSpeeding up LLM by dimension reduction\nNow that we know that this trick works to some extent, lets use it to reduce the number of model parameters.\n\nmodel.model.layers[0]\n\nQwen2DecoderLayer(\n  (self_attn): Qwen2SdpaAttention(\n    (q_proj): Linear(in_features=896, out_features=896, bias=True)\n    (k_proj): Linear(in_features=896, out_features=128, bias=True)\n    (v_proj): Linear(in_features=896, out_features=128, bias=True)\n    (o_proj): Linear(in_features=896, out_features=896, bias=False)\n    (rotary_emb): Qwen2RotaryEmbedding()\n  )\n  (mlp): Qwen2MLP(\n    (gate_proj): Linear(in_features=896, out_features=4864, bias=False)\n    (up_proj): Linear(in_features=896, out_features=4864, bias=False)\n    (down_proj): Linear(in_features=4864, out_features=896, bias=False)\n    (act_fn): SiLU()\n  )\n  (input_layernorm): Qwen2RMSNorm((896,), eps=1e-06)\n  (post_attention_layernorm): Qwen2RMSNorm((896,), eps=1e-06)\n)\n\n\n\nmodel.model.layers[1]\n\nQwen2DecoderLayer(\n  (self_attn): Qwen2SdpaAttention(\n    (q_proj): Linear(in_features=896, out_features=896, bias=True)\n    (k_proj): Linear(in_features=896, out_features=128, bias=True)\n    (v_proj): Linear(in_features=896, out_features=128, bias=True)\n    (o_proj): Linear(in_features=896, out_features=896, bias=False)\n    (rotary_emb): Qwen2RotaryEmbedding()\n  )\n  (mlp): Qwen2MLP(\n    (gate_proj): Linear(in_features=896, out_features=4864, bias=False)\n    (up_proj): Linear(in_features=896, out_features=4864, bias=False)\n    (down_proj): Linear(in_features=4864, out_features=896, bias=False)\n    (act_fn): SiLU()\n  )\n  (input_layernorm): Qwen2RMSNorm((896,), eps=1e-06)\n  (post_attention_layernorm): Qwen2RMSNorm((896,), eps=1e-06)\n)\n\n\n\nmodel.model.layers[2]\n\nQwen2DecoderLayer(\n  (self_attn): Qwen2SdpaAttention(\n    (q_proj): Linear(in_features=896, out_features=896, bias=True)\n    (k_proj): Linear(in_features=896, out_features=128, bias=True)\n    (v_proj): Linear(in_features=896, out_features=128, bias=True)\n    (o_proj): Linear(in_features=896, out_features=896, bias=False)\n    (rotary_emb): Qwen2RotaryEmbedding()\n  )\n  (mlp): Qwen2MLP(\n    (gate_proj): Linear(in_features=896, out_features=4864, bias=False)\n    (up_proj): Linear(in_features=896, out_features=4864, bias=False)\n    (down_proj): Linear(in_features=4864, out_features=896, bias=False)\n    (act_fn): SiLU()\n  )\n  (input_layernorm): Qwen2RMSNorm((896,), eps=1e-06)\n  (post_attention_layernorm): Qwen2RMSNorm((896,), eps=1e-06)\n)\n\n\n\ndef run_demo(low_dim, max_new_tokens=128, prompt=None):\n    projection = torch.randn((w.shape[1], low_dim))\n    inverse = projection.pinverse()\n    w_simple = w @ projection @ inverse\n    w_simple = w_simple / (low_dim/w.shape[1])\n    print(f\"compression error: {torch.dist(w, w_simple)}\")\n\n    w_simple = w_simple.type(torch.HalfTensor).bfloat16().to('cuda:0')\n    model.model.embed_tokens.weight = torch.nn.Parameter(w_simple)\n    demo(max_new_tokens, prompt)",
…
